…
  input_model_file: ../weights/pretrained/GraphCL_regression.pth
  output_model_dir: ../runs/static-noise/GraphCL/freesolv/noise=0.0
  verbose: False
[ Logs to :  ../runs/static-noise/GraphCL/freesolv/noise=0.0/freesolv_scaff_3_20-05_14-43-31  ]
[ Using Seed :  3  ]
[ Using device :  cuda:0  ]
Dataset: freesolv
Data: Data(edge_attr=[10770, 3], edge_index=[2, 10770], id=[639], x=[5597, 9], y=[639])
dataset_folder: ../datasets/molecule_datasets/freesolv
MoleculeDatasetComplete(639)
split via scaffold
GNN_graphpredComplete(
  (molecule_model): GNNComplete(
    (atom_encoder): AtomEncoder(
      (atom_embedding_list): ModuleList(
        (0): Embedding(119, 300)
        (1): Embedding(4, 300)
        (2): Embedding(12, 300)
        (3): Embedding(12, 300)
        (4): Embedding(10, 300)
        (5): Embedding(6, 300)
        (6): Embedding(6, 300)
        (7): Embedding(2, 300)
        (8): Embedding(2, 300)
      )
    )
    (gnns): ModuleList(
      (0): GINConv(
        (mlp): Sequential(
          (0): Linear(in_features=300, out_features=600, bias=True)
          (1): BatchNorm1d(600, eps=1e-05, momentum=0.1, affine=True, track_running_stats=True)
          (2): ReLU()
          (3): Linear(in_features=600, out_features=300, bias=True)
        )
        (bond_encoder): BondEncoder(
          (bond_embedding_list): ModuleList(
            (0): Embedding(5, 300)
            (1): Embedding(6, 300)
            (2): Embedding(2, 300)
          )
        )
      )
      (1): GINConv(
        (mlp): Sequential(
          (0): Linear(in_features=300, out_features=600, bias=True)
          (1): BatchNorm1d(600, eps=1e-05, momentum=0.1, affine=True, track_running_stats=True)
          (2): ReLU()
          (3): Linear(in_features=600, out_features=300, bias=True)
        )
        (bond_encoder): BondEncoder(
          (bond_embedding_list): ModuleList(
            (0): Embedding(5, 300)
            (1): Embedding(6, 300)
            (2): Embedding(2, 300)
          )
        )
      )
      (2): GINConv(
        (mlp): Sequential(
          (0): Linear(in_features=300, out_features=600, bias=True)
          (1): BatchNorm1d(600, eps=1e-05, momentum=0.1, affine=True, track_running_stats=True)
          (2): ReLU()
          (3): Linear(in_features=600, out_features=300, bias=True)
        )
        (bond_encoder): BondEncoder(
          (bond_embedding_list): ModuleList(
            (0): Embedding(5, 300)
            (1): Embedding(6, 300)
            (2): Embedding(2, 300)
          )
        )
      )
      (3): GINConv(
        (mlp): Sequential(
          (0): Linear(in_features=300, out_features=600, bias=True)
          (1): BatchNorm1d(600, eps=1e-05, momentum=0.1, affine=True, track_running_stats=True)
          (2): ReLU()
          (3): Linear(in_features=600, out_features=300, bias=True)
        )
        (bond_encoder): BondEncoder(
          (bond_embedding_list): ModuleList(
            (0): Embedding(5, 300)
            (1): Embedding(6, 300)
            (2): Embedding(2, 300)
          )
        )
      )
      (4): GINConv(
        (mlp): Sequential(
          (0): Linear(in_features=300, out_features=600, bias=True)
          (1): BatchNorm1d(600, eps=1e-05, momentum=0.1, affine=True, track_running_stats=True)
          (2): ReLU()
          (3): Linear(in_features=600, out_features=300, bias=True)
        )
        (bond_encoder): BondEncoder(
          (bond_embedding_list): ModuleList(
            (0): Embedding(5, 300)
            (1): Embedding(6, 300)
            (2): Embedding(2, 300)
          )
        )
      )
    )
    (batch_norms): ModuleList(
      (0): BatchNorm1d(300, eps=1e-05, momentum=0.1, affine=True, track_running_stats=True)
      (1): BatchNorm1d(300, eps=1e-05, momentum=0.1, affine=True, track_running_stats=True)
      (2): BatchNorm1d(300, eps=1e-05, momentum=0.1, affine=True, track_running_stats=True)
      (3): BatchNorm1d(300, eps=1e-05, momentum=0.1, affine=True, track_running_stats=True)
      (4): BatchNorm1d(300, eps=1e-05, momentum=0.1, affine=True, track_running_stats=True)
    )
  )
  (graph_pred_linear): Linear(in_features=300, out_features=1, bias=True)
)
Epoch: 1
Loss: 21.00621223449707
RMSE train: 4.811733	val: 8.518590	test: 6.743691
MAE train: 3.933183	val: 6.499681	test: 5.837927

Epoch: 2
Loss: 19.751680374145508
RMSE train: 4.882005	val: 8.499481	test: 6.943514
MAE train: 4.043867	val: 6.508329	test: 6.035385

Epoch: 3
Loss: 18.751426696777344
RMSE train: 4.979021	val: 8.395327	test: 6.948446
MAE train: 4.192075	val: 6.426325	test: 6.043867
…
