…
  eval_train: True
  input_model_file: ../weights/pretrained/GraphMVP_classification.pth
  output_model_dir: ../runs/split/GraphMVP/clintox/scaff/train_prop=0.6
  verbose: False
[ Logs to :  ../runs/split/GraphMVP/clintox/scaff/train_prop=0.6/clintox_scaff_4_26-05_11-11-03  ]
[ Using Seed :  4  ]
[ Using device :  cuda:0  ]
Dataset: clintox
Data: Data(edge_attr=[82372, 2], edge_index=[2, 82372], id=[1477], x=[38637, 2], y=[2954])
MoleculeDataset(1477)
split via scaffold
Data(edge_attr=[46, 2], edge_index=[2, 46], id=[1], x=[23, 2], y=[2])
GNN_graphpred(
  (molecule_model): GNN(
    (x_embedding1): Embedding(120, 300)
    (x_embedding2): Embedding(3, 300)
    (gnns): ModuleList(
      (0): GINConv(
        (mlp): Sequential(
          (0): Linear(in_features=300, out_features=600, bias=True)
          (1): ReLU()
          (2): Linear(in_features=600, out_features=300, bias=True)
        )
        (edge_embedding1): Embedding(6, 300)
        (edge_embedding2): Embedding(3, 300)
      )
      (1): GINConv(
        (mlp): Sequential(
          (0): Linear(in_features=300, out_features=600, bias=True)
          (1): ReLU()
          (2): Linear(in_features=600, out_features=300, bias=True)
        )
        (edge_embedding1): Embedding(6, 300)
        (edge_embedding2): Embedding(3, 300)
      )
      (2): GINConv(
        (mlp): Sequential(
          (0): Linear(in_features=300, out_features=600, bias=True)
          (1): ReLU()
          (2): Linear(in_features=600, out_features=300, bias=True)
        )
        (edge_embedding1): Embedding(6, 300)
        (edge_embedding2): Embedding(3, 300)
      )
      (3): GINConv(
        (mlp): Sequential(
          (0): Linear(in_features=300, out_features=600, bias=True)
          (1): ReLU()
          (2): Linear(in_features=600, out_features=300, bias=True)
        )
        (edge_embedding1): Embedding(6, 300)
        (edge_embedding2): Embedding(3, 300)
      )
      (4): GINConv(
        (mlp): Sequential(
          (0): Linear(in_features=300, out_features=600, bias=True)
          (1): ReLU()
          (2): Linear(in_features=600, out_features=300, bias=True)
        )
        (edge_embedding1): Embedding(6, 300)
        (edge_embedding2): Embedding(3, 300)
      )
    )
    (batch_norms): ModuleList(
      (0): BatchNorm1d(300, eps=1e-05, momentum=0.1, affine=True, track_running_stats=True)
      (1): BatchNorm1d(300, eps=1e-05, momentum=0.1, affine=True, track_running_stats=True)
      (2): BatchNorm1d(300, eps=1e-05, momentum=0.1, affine=True, track_running_stats=True)
      (3): BatchNorm1d(300, eps=1e-05, momentum=0.1, affine=True, track_running_stats=True)
      (4): BatchNorm1d(300, eps=1e-05, momentum=0.1, affine=True, track_running_stats=True)
    )
  )
  (graph_pred_linear): Linear(in_features=300, out_features=2, bias=True)
)
Epoch: 1
Loss: 0.6654317265084133
ROC train: 0.577723	val: 0.551031	test: 0.460248
PRC train: 0.530435	val: 0.546484	test: 0.497577

Epoch: 2
Loss: 0.6036964618160507
ROC train: 0.706571	val: 0.554638	test: 0.542440
PRC train: 0.576811	val: 0.550261	test: 0.506107

Epoch: 3
Loss: 0.5508020378353229
ROC train: 0.751372	val: 0.551964	test: 0.558992
PRC train: 0.602309	val: 0.526174	test: 0.507658
…
