…
  gamma_joaov2: 0.1
  eval_train: True
  input_model_file: ../weights/pretrained/GraphCL_classification.pth
  output_model_dir: ../runs/static-noise/GraphCL/bace/noise=0.0
  verbose: False
[ Logs to :  ../runs/static-noise/GraphCL/bace/noise=0.0/bace_scaff_3_20-05_14-43-32  ]
[ Using Seed :  3  ]
[ Using device :  cuda:0  ]
Dataset: bace
Data: Data(edge_attr=[111536, 2], edge_index=[2, 111536], id=[1513], x=[51577, 2], y=[1513])
MoleculeDataset(1513)
split via scaffold
Data(edge_attr=[66, 2], edge_index=[2, 66], id=[1], x=[31, 2], y=[1])
GNN_graphpred(
  (molecule_model): GNN(
    (x_embedding1): Embedding(120, 300)
    (x_embedding2): Embedding(3, 300)
    (gnns): ModuleList(
      (0): GINConv(
        (mlp): Sequential(
          (0): Linear(in_features=300, out_features=600, bias=True)
          (1): ReLU()
          (2): Linear(in_features=600, out_features=300, bias=True)
        )
        (edge_embedding1): Embedding(6, 300)
        (edge_embedding2): Embedding(3, 300)
      )
      (1): GINConv(
        (mlp): Sequential(
          (0): Linear(in_features=300, out_features=600, bias=True)
          (1): ReLU()
          (2): Linear(in_features=600, out_features=300, bias=True)
        )
        (edge_embedding1): Embedding(6, 300)
        (edge_embedding2): Embedding(3, 300)
      )
      (2): GINConv(
        (mlp): Sequential(
          (0): Linear(in_features=300, out_features=600, bias=True)
          (1): ReLU()
          (2): Linear(in_features=600, out_features=300, bias=True)
        )
        (edge_embedding1): Embedding(6, 300)
        (edge_embedding2): Embedding(3, 300)
      )
      (3): GINConv(
        (mlp): Sequential(
          (0): Linear(in_features=300, out_features=600, bias=True)
          (1): ReLU()
          (2): Linear(in_features=600, out_features=300, bias=True)
        )
        (edge_embedding1): Embedding(6, 300)
        (edge_embedding2): Embedding(3, 300)
      )
      (4): GINConv(
        (mlp): Sequential(
          (0): Linear(in_features=300, out_features=600, bias=True)
          (1): ReLU()
          (2): Linear(in_features=600, out_features=300, bias=True)
        )
        (edge_embedding1): Embedding(6, 300)
        (edge_embedding2): Embedding(3, 300)
      )
    )
    (batch_norms): ModuleList(
      (0): BatchNorm1d(300, eps=1e-05, momentum=0.1, affine=True, track_running_stats=True)
      (1): BatchNorm1d(300, eps=1e-05, momentum=0.1, affine=True, track_running_stats=True)
      (2): BatchNorm1d(300, eps=1e-05, momentum=0.1, affine=True, track_running_stats=True)
      (3): BatchNorm1d(300, eps=1e-05, momentum=0.1, affine=True, track_running_stats=True)
      (4): BatchNorm1d(300, eps=1e-05, momentum=0.1, affine=True, track_running_stats=True)
    )
  )
  (graph_pred_linear): Linear(in_features=300, out_features=1, bias=True)
)
Epoch: 1
Loss: 0.6785763897004318
ROC train: 0.704038	val: 0.667033	test: 0.582681
PRC train: 0.606260	val: 0.914276	test: 0.553952

Epoch: 2
Loss: 0.6325084829307982
ROC train: 0.770497	val: 0.657875	test: 0.585637
PRC train: 0.665492	val: 0.913605	test: 0.582690

Epoch: 3
Loss: 0.5713022235649127
ROC train: 0.803570	val: 0.623810	test: 0.614850
PRC train: 0.702814	val: 0.904787	test: 0.613365
…
