…
  input_model_file: ../weights/pretrained/GraphCL_regression.pth
  output_model_dir: ../runs/split/GraphCL/freesolv/scaff/train_prop=0.6
  verbose: False
[ Logs to :  ../runs/split/GraphCL/freesolv/scaff/train_prop=0.6/freesolv_scaff_3_20-05_14-43-15  ]
[ Using Seed :  3  ]
[ Using device :  cuda:0  ]
Dataset: freesolv
Data: Data(edge_attr=[10770, 3], edge_index=[2, 10770], id=[639], x=[5597, 9], y=[639])
dataset_folder: ../datasets/molecule_datasets/freesolv
MoleculeDatasetComplete(639)
split via scaffold
GNN_graphpredComplete(
  (molecule_model): GNNComplete(
    (atom_encoder): AtomEncoder(
      (atom_embedding_list): ModuleList(
        (0): Embedding(119, 300)
        (1): Embedding(4, 300)
        (2): Embedding(12, 300)
        (3): Embedding(12, 300)
        (4): Embedding(10, 300)
        (5): Embedding(6, 300)
        (6): Embedding(6, 300)
        (7): Embedding(2, 300)
        (8): Embedding(2, 300)
      )
    )
    (gnns): ModuleList(
      (0): GINConv(
        (mlp): Sequential(
          (0): Linear(in_features=300, out_features=600, bias=True)
          (1): BatchNorm1d(600, eps=1e-05, momentum=0.1, affine=True, track_running_stats=True)
          (2): ReLU()
          (3): Linear(in_features=600, out_features=300, bias=True)
        )
        (bond_encoder): BondEncoder(
          (bond_embedding_list): ModuleList(
            (0): Embedding(5, 300)
            (1): Embedding(6, 300)
            (2): Embedding(2, 300)
          )
        )
      )
      (1): GINConv(
        (mlp): Sequential(
          (0): Linear(in_features=300, out_features=600, bias=True)
          (1): BatchNorm1d(600, eps=1e-05, momentum=0.1, affine=True, track_running_stats=True)
          (2): ReLU()
          (3): Linear(in_features=600, out_features=300, bias=True)
        )
        (bond_encoder): BondEncoder(
          (bond_embedding_list): ModuleList(
            (0): Embedding(5, 300)
            (1): Embedding(6, 300)
            (2): Embedding(2, 300)
          )
        )
      )
      (2): GINConv(
        (mlp): Sequential(
          (0): Linear(in_features=300, out_features=600, bias=True)
          (1): BatchNorm1d(600, eps=1e-05, momentum=0.1, affine=True, track_running_stats=True)
          (2): ReLU()
          (3): Linear(in_features=600, out_features=300, bias=True)
        )
        (bond_encoder): BondEncoder(
          (bond_embedding_list): ModuleList(
            (0): Embedding(5, 300)
            (1): Embedding(6, 300)
            (2): Embedding(2, 300)
          )
        )
      )
      (3): GINConv(
        (mlp): Sequential(
          (0): Linear(in_features=300, out_features=600, bias=True)
          (1): BatchNorm1d(600, eps=1e-05, momentum=0.1, affine=True, track_running_stats=True)
          (2): ReLU()
          (3): Linear(in_features=600, out_features=300, bias=True)
        )
        (bond_encoder): BondEncoder(
          (bond_embedding_list): ModuleList(
            (0): Embedding(5, 300)
            (1): Embedding(6, 300)
            (2): Embedding(2, 300)
          )
        )
      )
      (4): GINConv(
        (mlp): Sequential(
          (0): Linear(in_features=300, out_features=600, bias=True)
          (1): BatchNorm1d(600, eps=1e-05, momentum=0.1, affine=True, track_running_stats=True)
          (2): ReLU()
          (3): Linear(in_features=600, out_features=300, bias=True)
        )
        (bond_encoder): BondEncoder(
          (bond_embedding_list): ModuleList(
            (0): Embedding(5, 300)
            (1): Embedding(6, 300)
            (2): Embedding(2, 300)
          )
        )
      )
    )
    (batch_norms): ModuleList(
      (0): BatchNorm1d(300, eps=1e-05, momentum=0.1, affine=True, track_running_stats=True)
      (1): BatchNorm1d(300, eps=1e-05, momentum=0.1, affine=True, track_running_stats=True)
      (2): BatchNorm1d(300, eps=1e-05, momentum=0.1, affine=True, track_running_stats=True)
      (3): BatchNorm1d(300, eps=1e-05, momentum=0.1, affine=True, track_running_stats=True)
      (4): BatchNorm1d(300, eps=1e-05, momentum=0.1, affine=True, track_running_stats=True)
    )
  )
  (graph_pred_linear): Linear(in_features=300, out_features=1, bias=True)
)
Epoch: 1
Loss: 16.991137981414795
RMSE train: 4.221897	val: 5.611857	test: 7.898349
MAE train: 3.410507	val: 4.774702	test: 6.228401

Epoch: 2
Loss: 16.517903327941895
RMSE train: 4.228627	val: 5.553527	test: 7.833685
MAE train: 3.426619	val: 4.739381	test: 6.147988

Epoch: 3
Loss: 15.0310959815979
RMSE train: 4.154389	val: 5.434640	test: 7.688924
MAE train: 3.369265	val: 4.633363	test: 6.014376
…
