…
  gamma_joaov2: 0.1
  eval_train: True
  input_model_file: ../weights/pretrained/GraphMVP_classification.pth
  output_model_dir: ../runs/split/GraphMVP/bace/random/train_prop=0.6
  verbose: False
[ Logs to :  ../runs/split/GraphMVP/bace/random/train_prop=0.6/bace_random_6_26-05_11-05-13  ]
[ Using Seed :  6  ]
[ Using device :  cuda:0  ]
Dataset: bace
Data: Data(edge_attr=[111536, 2], edge_index=[2, 111536], id=[1513], x=[51577, 2], y=[1513])
MoleculeDataset(1513)
randomly split
Data(edge_attr=[78, 2], edge_index=[2, 78], id=[1], x=[37, 2], y=[1])
GNN_graphpred(
  (molecule_model): GNN(
    (x_embedding1): Embedding(120, 300)
    (x_embedding2): Embedding(3, 300)
    (gnns): ModuleList(
      (0): GINConv(
        (mlp): Sequential(
          (0): Linear(in_features=300, out_features=600, bias=True)
          (1): ReLU()
          (2): Linear(in_features=600, out_features=300, bias=True)
        )
        (edge_embedding1): Embedding(6, 300)
        (edge_embedding2): Embedding(3, 300)
      )
      (1): GINConv(
        (mlp): Sequential(
          (0): Linear(in_features=300, out_features=600, bias=True)
          (1): ReLU()
          (2): Linear(in_features=600, out_features=300, bias=True)
        )
        (edge_embedding1): Embedding(6, 300)
        (edge_embedding2): Embedding(3, 300)
      )
      (2): GINConv(
        (mlp): Sequential(
          (0): Linear(in_features=300, out_features=600, bias=True)
          (1): ReLU()
          (2): Linear(in_features=600, out_features=300, bias=True)
        )
        (edge_embedding1): Embedding(6, 300)
        (edge_embedding2): Embedding(3, 300)
      )
      (3): GINConv(
        (mlp): Sequential(
          (0): Linear(in_features=300, out_features=600, bias=True)
          (1): ReLU()
          (2): Linear(in_features=600, out_features=300, bias=True)
        )
        (edge_embedding1): Embedding(6, 300)
        (edge_embedding2): Embedding(3, 300)
      )
      (4): GINConv(
        (mlp): Sequential(
          (0): Linear(in_features=300, out_features=600, bias=True)
          (1): ReLU()
          (2): Linear(in_features=600, out_features=300, bias=True)
        )
        (edge_embedding1): Embedding(6, 300)
        (edge_embedding2): Embedding(3, 300)
      )
    )
    (batch_norms): ModuleList(
      (0): BatchNorm1d(300, eps=1e-05, momentum=0.1, affine=True, track_running_stats=True)
      (1): BatchNorm1d(300, eps=1e-05, momentum=0.1, affine=True, track_running_stats=True)
      (2): BatchNorm1d(300, eps=1e-05, momentum=0.1, affine=True, track_running_stats=True)
      (3): BatchNorm1d(300, eps=1e-05, momentum=0.1, affine=True, track_running_stats=True)
      (4): BatchNorm1d(300, eps=1e-05, momentum=0.1, affine=True, track_running_stats=True)
    )
  )
  (graph_pred_linear): Linear(in_features=300, out_features=1, bias=True)
)
Epoch: 1
Loss: 0.6885052275229808
ROC train: 0.658668	val: 0.644854	test: 0.626393
PRC train: 0.608582	val: 0.621196	test: 0.536074

Epoch: 2
Loss: 0.6544354809318869
ROC train: 0.724067	val: 0.682115	test: 0.690186
PRC train: 0.666432	val: 0.649076	test: 0.582698

Epoch: 3
Loss: 0.6076432531506305
ROC train: 0.765169	val: 0.706693	test: 0.731256
PRC train: 0.708989	val: 0.659526	test: 0.617391
…
