…
  gamma_joaov2: 0.1
  eval_train: True
  input_model_file: ../weights/pretrained/GraphMVP_classification.pth
  output_model_dir: ../runs/split/GraphMVP/bbbp/random/train_prop=0.6
  verbose: False
[ Logs to :  ../runs/split/GraphMVP/bbbp/random/train_prop=0.6/bbbp_random_6_26-05_11-06-56  ]
[ Using Seed :  6  ]
[ Using device :  cuda:0  ]
Dataset: bbbp
Data: Data(edge_attr=[105842, 2], edge_index=[2, 105842], id=[2039], x=[49068, 2], y=[2039])
MoleculeDataset(2039)
randomly split
Data(edge_attr=[58, 2], edge_index=[2, 58], id=[1], x=[27, 2], y=[1])
GNN_graphpred(
  (molecule_model): GNN(
    (x_embedding1): Embedding(120, 300)
    (x_embedding2): Embedding(3, 300)
    (gnns): ModuleList(
      (0): GINConv(
        (mlp): Sequential(
          (0): Linear(in_features=300, out_features=600, bias=True)
          (1): ReLU()
          (2): Linear(in_features=600, out_features=300, bias=True)
        )
        (edge_embedding1): Embedding(6, 300)
        (edge_embedding2): Embedding(3, 300)
      )
      (1): GINConv(
        (mlp): Sequential(
          (0): Linear(in_features=300, out_features=600, bias=True)
          (1): ReLU()
          (2): Linear(in_features=600, out_features=300, bias=True)
        )
        (edge_embedding1): Embedding(6, 300)
        (edge_embedding2): Embedding(3, 300)
      )
      (2): GINConv(
        (mlp): Sequential(
          (0): Linear(in_features=300, out_features=600, bias=True)
          (1): ReLU()
          (2): Linear(in_features=600, out_features=300, bias=True)
        )
        (edge_embedding1): Embedding(6, 300)
        (edge_embedding2): Embedding(3, 300)
      )
      (3): GINConv(
        (mlp): Sequential(
          (0): Linear(in_features=300, out_features=600, bias=True)
          (1): ReLU()
          (2): Linear(in_features=600, out_features=300, bias=True)
        )
        (edge_embedding1): Embedding(6, 300)
        (edge_embedding2): Embedding(3, 300)
      )
      (4): GINConv(
        (mlp): Sequential(
          (0): Linear(in_features=300, out_features=600, bias=True)
          (1): ReLU()
          (2): Linear(in_features=600, out_features=300, bias=True)
        )
        (edge_embedding1): Embedding(6, 300)
        (edge_embedding2): Embedding(3, 300)
      )
    )
    (batch_norms): ModuleList(
      (0): BatchNorm1d(300, eps=1e-05, momentum=0.1, affine=True, track_running_stats=True)
      (1): BatchNorm1d(300, eps=1e-05, momentum=0.1, affine=True, track_running_stats=True)
      (2): BatchNorm1d(300, eps=1e-05, momentum=0.1, affine=True, track_running_stats=True)
      (3): BatchNorm1d(300, eps=1e-05, momentum=0.1, affine=True, track_running_stats=True)
      (4): BatchNorm1d(300, eps=1e-05, momentum=0.1, affine=True, track_running_stats=True)
    )
  )
  (graph_pred_linear): Linear(in_features=300, out_features=1, bias=True)
)
Epoch: 1
Loss: 0.6540722501004287
ROC train: 0.784921	val: 0.782493	test: 0.737384
PRC train: 0.911870	val: 0.917648	test: 0.885723

Epoch: 2
Loss: 0.55871844587141
ROC train: 0.824338	val: 0.815801	test: 0.768882
PRC train: 0.929517	val: 0.928953	test: 0.901314

Epoch: 3
Loss: 0.4806893105683345
ROC train: 0.847185	val: 0.834834	test: 0.799199
PRC train: 0.938303	val: 0.935361	test: 0.919469
…
