…
  gamma_joaov2: 0.1
  eval_train: True
  input_model_file: ../weights/pretrained/GraphMVP_classification.pth
  output_model_dir: ../runs/split/GraphMVP/sider/scaff/train_prop=0.6
  verbose: False
[ Logs to :  ../runs/split/GraphMVP/sider/scaff/train_prop=0.6/sider_scaff_5_26-05_11-13-31  ]
[ Using Seed :  5  ]
[ Using device :  cuda:0  ]
Dataset: sider
Data: Data(edge_attr=[100912, 2], edge_index=[2, 100912], id=[1427], x=[48006, 2], y=[38529])
MoleculeDataset(1427)
split via scaffold
Data(edge_attr=[24, 2], edge_index=[2, 24], id=[1], x=[13, 2], y=[27])
GNN_graphpred(
  (molecule_model): GNN(
    (x_embedding1): Embedding(120, 300)
    (x_embedding2): Embedding(3, 300)
    (gnns): ModuleList(
      (0): GINConv(
        (mlp): Sequential(
          (0): Linear(in_features=300, out_features=600, bias=True)
          (1): ReLU()
          (2): Linear(in_features=600, out_features=300, bias=True)
        )
        (edge_embedding1): Embedding(6, 300)
        (edge_embedding2): Embedding(3, 300)
      )
      (1): GINConv(
        (mlp): Sequential(
          (0): Linear(in_features=300, out_features=600, bias=True)
          (1): ReLU()
          (2): Linear(in_features=600, out_features=300, bias=True)
        )
        (edge_embedding1): Embedding(6, 300)
        (edge_embedding2): Embedding(3, 300)
      )
      (2): GINConv(
        (mlp): Sequential(
          (0): Linear(in_features=300, out_features=600, bias=True)
          (1): ReLU()
          (2): Linear(in_features=600, out_features=300, bias=True)
        )
        (edge_embedding1): Embedding(6, 300)
        (edge_embedding2): Embedding(3, 300)
      )
      (3): GINConv(
        (mlp): Sequential(
          (0): Linear(in_features=300, out_features=600, bias=True)
          (1): ReLU()
          (2): Linear(in_features=600, out_features=300, bias=True)
        )
        (edge_embedding1): Embedding(6, 300)
        (edge_embedding2): Embedding(3, 300)
      )
      (4): GINConv(
        (mlp): Sequential(
          (0): Linear(in_features=300, out_features=600, bias=True)
          (1): ReLU()
          (2): Linear(in_features=600, out_features=300, bias=True)
        )
        (edge_embedding1): Embedding(6, 300)
        (edge_embedding2): Embedding(3, 300)
      )
    )
    (batch_norms): ModuleList(
      (0): BatchNorm1d(300, eps=1e-05, momentum=0.1, affine=True, track_running_stats=True)
      (1): BatchNorm1d(300, eps=1e-05, momentum=0.1, affine=True, track_running_stats=True)
      (2): BatchNorm1d(300, eps=1e-05, momentum=0.1, affine=True, track_running_stats=True)
      (3): BatchNorm1d(300, eps=1e-05, momentum=0.1, affine=True, track_running_stats=True)
      (4): BatchNorm1d(300, eps=1e-05, momentum=0.1, affine=True, track_running_stats=True)
    )
  )
  (graph_pred_linear): Linear(in_features=300, out_features=27, bias=True)
)
Epoch: 1
Loss: 0.6893669982792631
ROC train: 0.523615	val: 0.490533	test: 0.486763
PRC train: 0.562826	val: 0.592088	test: 0.581157

Epoch: 2
Loss: 0.6567003430793205
ROC train: 0.554626	val: 0.503950	test: 0.500594
PRC train: 0.587279	val: 0.600308	test: 0.587635

Epoch: 3
Loss: 0.6276346298365549
ROC train: 0.578288	val: 0.509719	test: 0.509389
PRC train: 0.606458	val: 0.603070	test: 0.591329
…
