…
  gamma_joaov2: 0.1
  eval_train: True
  input_model_file: ../weights/pretrained/GraphCL_classification.pth
  output_model_dir: ../runs/split/GraphCL/hiv/scaff/train_prop=0.6
  verbose: False
[ Logs to :  ../runs/split/GraphCL/hiv/scaff/train_prop=0.6/hiv_scaff_5_26-05_10-25-11  ]
[ Using Seed :  5  ]
[ Using device :  cuda:0  ]
Dataset: hiv
Data: Data(edge_attr=[2259376, 2], edge_index=[2, 2259376], id=[41127], x=[1049163, 2], y=[41127])
MoleculeDataset(41127)
split via scaffold
Data(edge_attr=[32, 2], edge_index=[2, 32], id=[1], x=[16, 2], y=[1])
GNN_graphpred(
  (molecule_model): GNN(
    (x_embedding1): Embedding(120, 300)
    (x_embedding2): Embedding(3, 300)
    (gnns): ModuleList(
      (0): GINConv(
        (mlp): Sequential(
          (0): Linear(in_features=300, out_features=600, bias=True)
          (1): ReLU()
          (2): Linear(in_features=600, out_features=300, bias=True)
        )
        (edge_embedding1): Embedding(6, 300)
        (edge_embedding2): Embedding(3, 300)
      )
      (1): GINConv(
        (mlp): Sequential(
          (0): Linear(in_features=300, out_features=600, bias=True)
          (1): ReLU()
          (2): Linear(in_features=600, out_features=300, bias=True)
        )
        (edge_embedding1): Embedding(6, 300)
        (edge_embedding2): Embedding(3, 300)
      )
      (2): GINConv(
        (mlp): Sequential(
          (0): Linear(in_features=300, out_features=600, bias=True)
          (1): ReLU()
          (2): Linear(in_features=600, out_features=300, bias=True)
        )
        (edge_embedding1): Embedding(6, 300)
        (edge_embedding2): Embedding(3, 300)
      )
      (3): GINConv(
        (mlp): Sequential(
          (0): Linear(in_features=300, out_features=600, bias=True)
          (1): ReLU()
          (2): Linear(in_features=600, out_features=300, bias=True)
        )
        (edge_embedding1): Embedding(6, 300)
        (edge_embedding2): Embedding(3, 300)
      )
      (4): GINConv(
        (mlp): Sequential(
          (0): Linear(in_features=300, out_features=600, bias=True)
          (1): ReLU()
          (2): Linear(in_features=600, out_features=300, bias=True)
        )
        (edge_embedding1): Embedding(6, 300)
        (edge_embedding2): Embedding(3, 300)
      )
    )
    (batch_norms): ModuleList(
      (0): BatchNorm1d(300, eps=1e-05, momentum=0.1, affine=True, track_running_stats=True)
      (1): BatchNorm1d(300, eps=1e-05, momentum=0.1, affine=True, track_running_stats=True)
      (2): BatchNorm1d(300, eps=1e-05, momentum=0.1, affine=True, track_running_stats=True)
      (3): BatchNorm1d(300, eps=1e-05, momentum=0.1, affine=True, track_running_stats=True)
      (4): BatchNorm1d(300, eps=1e-05, momentum=0.1, affine=True, track_running_stats=True)
    )
  )
  (graph_pred_linear): Linear(in_features=300, out_features=1, bias=True)
)
Epoch: 1
Loss: 0.3053330992676394
ROC train: 0.783432	val: 0.680832	test: 0.697262
PRC train: 0.269509	val: 0.150150	test: 0.135001

Epoch: 2
Loss: 0.14335706435873613
ROC train: 0.801992	val: 0.664928	test: 0.682979
PRC train: 0.302676	val: 0.164547	test: 0.205278

Epoch: 3
Loss: 0.1327872971011249
ROC train: 0.812714	val: 0.666059	test: 0.742749
PRC train: 0.368973	val: 0.159949	test: 0.260753
…
