…
  input_model_file: ../weights/pretrained/GraphMVP_regression.pth
  output_model_dir: ../runs/split/GraphMVP/esol/scaff/train_prop=0.6
  verbose: False
[ Logs to :  ../runs/split/GraphMVP/esol/scaff/train_prop=0.6/esol_scaff_5_26-05_11-09-14  ]
[ Using Seed :  5  ]
[ Using device :  cuda:0  ]
Dataset: esol
Data: Data(edge_attr=[30856, 3], edge_index=[2, 30856], id=[1127], x=[14990, 9], y=[1127])
dataset_folder: ../datasets/molecule_datasets/esol
MoleculeDatasetComplete(1127)
split via scaffold
GNN_graphpredComplete(
  (molecule_model): GNNComplete(
    (atom_encoder): AtomEncoder(
      (atom_embedding_list): ModuleList(
        (0): Embedding(119, 300)
        (1): Embedding(4, 300)
        (2): Embedding(12, 300)
        (3): Embedding(12, 300)
        (4): Embedding(10, 300)
        (5): Embedding(6, 300)
        (6): Embedding(6, 300)
        (7): Embedding(2, 300)
        (8): Embedding(2, 300)
      )
    )
    (gnns): ModuleList(
      (0): GINConv(
        (mlp): Sequential(
          (0): Linear(in_features=300, out_features=600, bias=True)
          (1): BatchNorm1d(600, eps=1e-05, momentum=0.1, affine=True, track_running_stats=True)
          (2): ReLU()
          (3): Linear(in_features=600, out_features=300, bias=True)
        )
        (bond_encoder): BondEncoder(
          (bond_embedding_list): ModuleList(
            (0): Embedding(5, 300)
            (1): Embedding(6, 300)
            (2): Embedding(2, 300)
          )
        )
      )
      (1): GINConv(
        (mlp): Sequential(
          (0): Linear(in_features=300, out_features=600, bias=True)
          (1): BatchNorm1d(600, eps=1e-05, momentum=0.1, affine=True, track_running_stats=True)
          (2): ReLU()
          (3): Linear(in_features=600, out_features=300, bias=True)
        )
        (bond_encoder): BondEncoder(
          (bond_embedding_list): ModuleList(
            (0): Embedding(5, 300)
            (1): Embedding(6, 300)
            (2): Embedding(2, 300)
          )
        )
      )
      (2): GINConv(
        (mlp): Sequential(
          (0): Linear(in_features=300, out_features=600, bias=True)
          (1): BatchNorm1d(600, eps=1e-05, momentum=0.1, affine=True, track_running_stats=True)
          (2): ReLU()
          (3): Linear(in_features=600, out_features=300, bias=True)
        )
        (bond_encoder): BondEncoder(
          (bond_embedding_list): ModuleList(
            (0): Embedding(5, 300)
            (1): Embedding(6, 300)
            (2): Embedding(2, 300)
          )
        )
      )
      (3): GINConv(
        (mlp): Sequential(
          (0): Linear(in_features=300, out_features=600, bias=True)
          (1): BatchNorm1d(600, eps=1e-05, momentum=0.1, affine=True, track_running_stats=True)
          (2): ReLU()
          (3): Linear(in_features=600, out_features=300, bias=True)
        )
        (bond_encoder): BondEncoder(
          (bond_embedding_list): ModuleList(
            (0): Embedding(5, 300)
            (1): Embedding(6, 300)
            (2): Embedding(2, 300)
          )
        )
      )
      (4): GINConv(
        (mlp): Sequential(
          (0): Linear(in_features=300, out_features=600, bias=True)
          (1): BatchNorm1d(600, eps=1e-05, momentum=0.1, affine=True, track_running_stats=True)
          (2): ReLU()
          (3): Linear(in_features=600, out_features=300, bias=True)
        )
        (bond_encoder): BondEncoder(
          (bond_embedding_list): ModuleList(
            (0): Embedding(5, 300)
            (1): Embedding(6, 300)
            (2): Embedding(2, 300)
          )
        )
      )
    )
    (batch_norms): ModuleList(
      (0): BatchNorm1d(300, eps=1e-05, momentum=0.1, affine=True, track_running_stats=True)
      (1): BatchNorm1d(300, eps=1e-05, momentum=0.1, affine=True, track_running_stats=True)
      (2): BatchNorm1d(300, eps=1e-05, momentum=0.1, affine=True, track_running_stats=True)
      (3): BatchNorm1d(300, eps=1e-05, momentum=0.1, affine=True, track_running_stats=True)
      (4): BatchNorm1d(300, eps=1e-05, momentum=0.1, affine=True, track_running_stats=True)
    )
  )
  (graph_pred_linear): Linear(in_features=300, out_features=1, bias=True)
)
Epoch: 1
Loss: 11.73400592803955
RMSE train: 3.388216	val: 3.924506	test: 4.322428
MAE train: 2.859152	val: 3.504460	test: 3.961557

Epoch: 2
Loss: 10.527972539265951
RMSE train: 3.316665	val: 4.005572	test: 4.383638
MAE train: 2.827438	val: 3.632368	test: 4.087808

Epoch: 3
Loss: 9.819085121154785
RMSE train: 3.230743	val: 4.149330	test: 4.548866
MAE train: 2.773799	val: 3.791338	test: 4.283512
…
