…
  input_model_file: ../weights/pretrained/GraphMVP_regression.pth
  output_model_dir: ../runs/split/GraphMVP/freesolv/scaff/train_prop=0.6
  verbose: False
[ Logs to :  ../runs/split/GraphMVP/freesolv/scaff/train_prop=0.6/freesolv_scaff_5_26-05_11-10-19  ]
[ Using Seed :  5  ]
[ Using device :  cuda:0  ]
Dataset: freesolv
Data: Data(edge_attr=[10770, 3], edge_index=[2, 10770], id=[639], x=[5597, 9], y=[639])
dataset_folder: ../datasets/molecule_datasets/freesolv
MoleculeDatasetComplete(639)
split via scaffold
GNN_graphpredComplete(
  (molecule_model): GNNComplete(
    (atom_encoder): AtomEncoder(
      (atom_embedding_list): ModuleList(
        (0): Embedding(119, 300)
        (1): Embedding(4, 300)
        (2): Embedding(12, 300)
        (3): Embedding(12, 300)
        (4): Embedding(10, 300)
        (5): Embedding(6, 300)
        (6): Embedding(6, 300)
        (7): Embedding(2, 300)
        (8): Embedding(2, 300)
      )
    )
    (gnns): ModuleList(
      (0): GINConv(
        (mlp): Sequential(
          (0): Linear(in_features=300, out_features=600, bias=True)
          (1): BatchNorm1d(600, eps=1e-05, momentum=0.1, affine=True, track_running_stats=True)
          (2): ReLU()
          (3): Linear(in_features=600, out_features=300, bias=True)
        )
        (bond_encoder): BondEncoder(
          (bond_embedding_list): ModuleList(
            (0): Embedding(5, 300)
            (1): Embedding(6, 300)
            (2): Embedding(2, 300)
          )
        )
      )
      (1): GINConv(
        (mlp): Sequential(
          (0): Linear(in_features=300, out_features=600, bias=True)
          (1): BatchNorm1d(600, eps=1e-05, momentum=0.1, affine=True, track_running_stats=True)
          (2): ReLU()
          (3): Linear(in_features=600, out_features=300, bias=True)
        )
        (bond_encoder): BondEncoder(
          (bond_embedding_list): ModuleList(
            (0): Embedding(5, 300)
            (1): Embedding(6, 300)
            (2): Embedding(2, 300)
          )
        )
      )
      (2): GINConv(
        (mlp): Sequential(
          (0): Linear(in_features=300, out_features=600, bias=True)
          (1): BatchNorm1d(600, eps=1e-05, momentum=0.1, affine=True, track_running_stats=True)
          (2): ReLU()
          (3): Linear(in_features=600, out_features=300, bias=True)
        )
        (bond_encoder): BondEncoder(
          (bond_embedding_list): ModuleList(
            (0): Embedding(5, 300)
            (1): Embedding(6, 300)
            (2): Embedding(2, 300)
          )
        )
      )
      (3): GINConv(
        (mlp): Sequential(
          (0): Linear(in_features=300, out_features=600, bias=True)
          (1): BatchNorm1d(600, eps=1e-05, momentum=0.1, affine=True, track_running_stats=True)
          (2): ReLU()
          (3): Linear(in_features=600, out_features=300, bias=True)
        )
        (bond_encoder): BondEncoder(
          (bond_embedding_list): ModuleList(
            (0): Embedding(5, 300)
            (1): Embedding(6, 300)
            (2): Embedding(2, 300)
          )
        )
      )
      (4): GINConv(
        (mlp): Sequential(
          (0): Linear(in_features=300, out_features=600, bias=True)
          (1): BatchNorm1d(600, eps=1e-05, momentum=0.1, affine=True, track_running_stats=True)
          (2): ReLU()
          (3): Linear(in_features=600, out_features=300, bias=True)
        )
        (bond_encoder): BondEncoder(
          (bond_embedding_list): ModuleList(
            (0): Embedding(5, 300)
            (1): Embedding(6, 300)
            (2): Embedding(2, 300)
          )
        )
      )
    )
    (batch_norms): ModuleList(
      (0): BatchNorm1d(300, eps=1e-05, momentum=0.1, affine=True, track_running_stats=True)
      (1): BatchNorm1d(300, eps=1e-05, momentum=0.1, affine=True, track_running_stats=True)
      (2): BatchNorm1d(300, eps=1e-05, momentum=0.1, affine=True, track_running_stats=True)
      (3): BatchNorm1d(300, eps=1e-05, momentum=0.1, affine=True, track_running_stats=True)
      (4): BatchNorm1d(300, eps=1e-05, momentum=0.1, affine=True, track_running_stats=True)
    )
  )
  (graph_pred_linear): Linear(in_features=300, out_features=1, bias=True)
)
Epoch: 1
Loss: 18.7063627243042
RMSE train: 4.276474	val: 5.840344	test: 8.297871
MAE train: 3.425356	val: 4.980988	test: 6.730131

Epoch: 2
Loss: 17.208937644958496
RMSE train: 4.151921	val: 5.806904	test: 8.159534
MAE train: 3.317568	val: 5.007231	test: 6.633364

Epoch: 3
Loss: 15.835517406463623
RMSE train: 4.029308	val: 5.783880	test: 8.026734
MAE train: 3.212906	val: 5.041515	test: 6.526671
…
