…
  gamma_joaov2: 0.1
  eval_train: True
  input_model_file: ../weights/pretrained/GraphCL_classification.pth
  output_model_dir: ../runs/split/GraphCL/tox21/random/train_prop=0.6
  verbose: False
[ Logs to :  ../runs/split/GraphCL/tox21/random/train_prop=0.6/tox21_random_3_20-05_14-43-16  ]
[ Using Seed :  3  ]
[ Using device :  cuda:0  ]
Dataset: tox21
Data: Data(edge_attr=[302190, 2], edge_index=[2, 302190], id=[7831], x=[145459, 2], y=[93972])
MoleculeDataset(7831)
randomly split
Data(edge_attr=[26, 2], edge_index=[2, 26], id=[1], x=[13, 2], y=[12])
GNN_graphpred(
  (molecule_model): GNN(
    (x_embedding1): Embedding(120, 300)
    (x_embedding2): Embedding(3, 300)
    (gnns): ModuleList(
      (0): GINConv(
        (mlp): Sequential(
          (0): Linear(in_features=300, out_features=600, bias=True)
          (1): ReLU()
          (2): Linear(in_features=600, out_features=300, bias=True)
        )
        (edge_embedding1): Embedding(6, 300)
        (edge_embedding2): Embedding(3, 300)
      )
      (1): GINConv(
        (mlp): Sequential(
          (0): Linear(in_features=300, out_features=600, bias=True)
          (1): ReLU()
          (2): Linear(in_features=600, out_features=300, bias=True)
        )
        (edge_embedding1): Embedding(6, 300)
        (edge_embedding2): Embedding(3, 300)
      )
      (2): GINConv(
        (mlp): Sequential(
          (0): Linear(in_features=300, out_features=600, bias=True)
          (1): ReLU()
          (2): Linear(in_features=600, out_features=300, bias=True)
        )
        (edge_embedding1): Embedding(6, 300)
        (edge_embedding2): Embedding(3, 300)
      )
      (3): GINConv(
        (mlp): Sequential(
          (0): Linear(in_features=300, out_features=600, bias=True)
          (1): ReLU()
          (2): Linear(in_features=600, out_features=300, bias=True)
        )
        (edge_embedding1): Embedding(6, 300)
        (edge_embedding2): Embedding(3, 300)
      )
      (4): GINConv(
        (mlp): Sequential(
          (0): Linear(in_features=300, out_features=600, bias=True)
          (1): ReLU()
          (2): Linear(in_features=600, out_features=300, bias=True)
        )
        (edge_embedding1): Embedding(6, 300)
        (edge_embedding2): Embedding(3, 300)
      )
    )
    (batch_norms): ModuleList(
      (0): BatchNorm1d(300, eps=1e-05, momentum=0.1, affine=True, track_running_stats=True)
      (1): BatchNorm1d(300, eps=1e-05, momentum=0.1, affine=True, track_running_stats=True)
      (2): BatchNorm1d(300, eps=1e-05, momentum=0.1, affine=True, track_running_stats=True)
      (3): BatchNorm1d(300, eps=1e-05, momentum=0.1, affine=True, track_running_stats=True)
      (4): BatchNorm1d(300, eps=1e-05, momentum=0.1, affine=True, track_running_stats=True)
    )
  )
  (graph_pred_linear): Linear(in_features=300, out_features=12, bias=True)
)
Epoch: 1
Loss: 0.5666937135138538
ROC train: 0.693544	val: 0.664453	test: 0.660401
PRC train: 0.206150	val: 0.212408	test: 0.176832

Epoch: 2
Loss: 0.3794653927556623
ROC train: 0.743147	val: 0.717812	test: 0.694898
PRC train: 0.261922	val: 0.256268	test: 0.219353

Epoch: 3
Loss: 0.2849028424541327
ROC train: 0.759463	val: 0.728826	test: 0.718636
PRC train: 0.290823	val: 0.261185	test: 0.236551
…
