…
  gamma_joaov2: 0.1
  eval_train: True
  input_model_file: ../weights/pretrained/GraphCL_classification.pth
  output_model_dir: ../runs/split/GraphCL/hiv/random/train_prop=0.6
  verbose: False
[ Logs to :  ../runs/split/GraphCL/hiv/random/train_prop=0.6/hiv_random_5_26-05_09-45-23  ]
[ Using Seed :  5  ]
[ Using device :  cuda:0  ]
Dataset: hiv
Data: Data(edge_attr=[2259376, 2], edge_index=[2, 2259376], id=[41127], x=[1049163, 2], y=[41127])
MoleculeDataset(41127)
randomly split
Data(edge_attr=[84, 2], edge_index=[2, 84], id=[1], x=[39, 2], y=[1])
GNN_graphpred(
  (molecule_model): GNN(
    (x_embedding1): Embedding(120, 300)
    (x_embedding2): Embedding(3, 300)
    (gnns): ModuleList(
      (0): GINConv(
        (mlp): Sequential(
          (0): Linear(in_features=300, out_features=600, bias=True)
          (1): ReLU()
          (2): Linear(in_features=600, out_features=300, bias=True)
        )
        (edge_embedding1): Embedding(6, 300)
        (edge_embedding2): Embedding(3, 300)
      )
      (1): GINConv(
        (mlp): Sequential(
          (0): Linear(in_features=300, out_features=600, bias=True)
          (1): ReLU()
          (2): Linear(in_features=600, out_features=300, bias=True)
        )
        (edge_embedding1): Embedding(6, 300)
        (edge_embedding2): Embedding(3, 300)
      )
      (2): GINConv(
        (mlp): Sequential(
          (0): Linear(in_features=300, out_features=600, bias=True)
          (1): ReLU()
          (2): Linear(in_features=600, out_features=300, bias=True)
        )
        (edge_embedding1): Embedding(6, 300)
        (edge_embedding2): Embedding(3, 300)
      )
      (3): GINConv(
        (mlp): Sequential(
          (0): Linear(in_features=300, out_features=600, bias=True)
          (1): ReLU()
          (2): Linear(in_features=600, out_features=300, bias=True)
        )
        (edge_embedding1): Embedding(6, 300)
        (edge_embedding2): Embedding(3, 300)
      )
      (4): GINConv(
        (mlp): Sequential(
          (0): Linear(in_features=300, out_features=600, bias=True)
          (1): ReLU()
          (2): Linear(in_features=600, out_features=300, bias=True)
        )
        (edge_embedding1): Embedding(6, 300)
        (edge_embedding2): Embedding(3, 300)
      )
    )
    (batch_norms): ModuleList(
      (0): BatchNorm1d(300, eps=1e-05, momentum=0.1, affine=True, track_running_stats=True)
      (1): BatchNorm1d(300, eps=1e-05, momentum=0.1, affine=True, track_running_stats=True)
      (2): BatchNorm1d(300, eps=1e-05, momentum=0.1, affine=True, track_running_stats=True)
      (3): BatchNorm1d(300, eps=1e-05, momentum=0.1, affine=True, track_running_stats=True)
      (4): BatchNorm1d(300, eps=1e-05, momentum=0.1, affine=True, track_running_stats=True)
    )
  )
  (graph_pred_linear): Linear(in_features=300, out_features=1, bias=True)
)
Epoch: 1
Loss: 0.3015050078133284
ROC train: 0.735438	val: 0.702461	test: 0.728590
PRC train: 0.183249	val: 0.189367	test: 0.217627

Epoch: 2
Loss: 0.13914835929746003
ROC train: 0.769648	val: 0.728190	test: 0.752625
PRC train: 0.237727	val: 0.236343	test: 0.263634

Epoch: 3
Loss: 0.13190661954330463
ROC train: 0.769548	val: 0.728237	test: 0.769454
PRC train: 0.251582	val: 0.249669	test: 0.287607
…
