…
  gamma_joaov2: 0.1
  eval_train: True
  input_model_file: ../weights/pretrained/GraphMVP_classification.pth
  output_model_dir: ../runs/split/GraphMVP/tox21/random/train_prop=0.6
  verbose: False
[ Logs to :  ../runs/split/GraphMVP/tox21/random/train_prop=0.6/tox21_random_6_26-05_11-07-48  ]
[ Using Seed :  6  ]
[ Using device :  cuda:0  ]
Dataset: tox21
Data: Data(edge_attr=[302190, 2], edge_index=[2, 302190], id=[7831], x=[145459, 2], y=[93972])
MoleculeDataset(7831)
randomly split
Data(edge_attr=[26, 2], edge_index=[2, 26], id=[1], x=[13, 2], y=[12])
GNN_graphpred(
  (molecule_model): GNN(
    (x_embedding1): Embedding(120, 300)
    (x_embedding2): Embedding(3, 300)
    (gnns): ModuleList(
      (0): GINConv(
        (mlp): Sequential(
          (0): Linear(in_features=300, out_features=600, bias=True)
          (1): ReLU()
          (2): Linear(in_features=600, out_features=300, bias=True)
        )
        (edge_embedding1): Embedding(6, 300)
        (edge_embedding2): Embedding(3, 300)
      )
      (1): GINConv(
        (mlp): Sequential(
          (0): Linear(in_features=300, out_features=600, bias=True)
          (1): ReLU()
          (2): Linear(in_features=600, out_features=300, bias=True)
        )
        (edge_embedding1): Embedding(6, 300)
        (edge_embedding2): Embedding(3, 300)
      )
      (2): GINConv(
        (mlp): Sequential(
          (0): Linear(in_features=300, out_features=600, bias=True)
          (1): ReLU()
          (2): Linear(in_features=600, out_features=300, bias=True)
        )
        (edge_embedding1): Embedding(6, 300)
        (edge_embedding2): Embedding(3, 300)
      )
      (3): GINConv(
        (mlp): Sequential(
          (0): Linear(in_features=300, out_features=600, bias=True)
          (1): ReLU()
          (2): Linear(in_features=600, out_features=300, bias=True)
        )
        (edge_embedding1): Embedding(6, 300)
        (edge_embedding2): Embedding(3, 300)
      )
      (4): GINConv(
        (mlp): Sequential(
          (0): Linear(in_features=300, out_features=600, bias=True)
          (1): ReLU()
          (2): Linear(in_features=600, out_features=300, bias=True)
        )
        (edge_embedding1): Embedding(6, 300)
        (edge_embedding2): Embedding(3, 300)
      )
    )
    (batch_norms): ModuleList(
      (0): BatchNorm1d(300, eps=1e-05, momentum=0.1, affine=True, track_running_stats=True)
      (1): BatchNorm1d(300, eps=1e-05, momentum=0.1, affine=True, track_running_stats=True)
      (2): BatchNorm1d(300, eps=1e-05, momentum=0.1, affine=True, track_running_stats=True)
      (3): BatchNorm1d(300, eps=1e-05, momentum=0.1, affine=True, track_running_stats=True)
      (4): BatchNorm1d(300, eps=1e-05, momentum=0.1, affine=True, track_running_stats=True)
    )
  )
  (graph_pred_linear): Linear(in_features=300, out_features=12, bias=True)
)
Epoch: 1
Loss: 0.5795832172259143
ROC train: 0.701759	val: 0.685994	test: 0.656879
PRC train: 0.174008	val: 0.200737	test: 0.149063

Epoch: 2
Loss: 0.411772607683041
ROC train: 0.751295	val: 0.719569	test: 0.700903
PRC train: 0.267324	val: 0.260263	test: 0.204892

Epoch: 3
Loss: 0.3071843502161528
ROC train: 0.775398	val: 0.736187	test: 0.716998
PRC train: 0.303312	val: 0.286408	test: 0.223729
…
