…
  gamma_joaov2: 0.1
  eval_train: True
  input_model_file: ../weights/pretrained/GraphCL_classification.pth
  output_model_dir: ../runs/split/GraphCL/sider/random/train_prop=0.6
  verbose: False
[ Logs to :  ../runs/split/GraphCL/sider/random/train_prop=0.6/sider_random_1_20-05_14-43-16  ]
[ Using Seed :  1  ]
[ Using device :  cuda:0  ]
Dataset: sider
Data: Data(edge_attr=[100912, 2], edge_index=[2, 100912], id=[1427], x=[48006, 2], y=[38529])
MoleculeDataset(1427)
randomly split
Data(edge_attr=[38, 2], edge_index=[2, 38], id=[1], x=[18, 2], y=[27])
GNN_graphpred(
  (molecule_model): GNN(
    (x_embedding1): Embedding(120, 300)
    (x_embedding2): Embedding(3, 300)
    (gnns): ModuleList(
      (0): GINConv(
        (mlp): Sequential(
          (0): Linear(in_features=300, out_features=600, bias=True)
          (1): ReLU()
          (2): Linear(in_features=600, out_features=300, bias=True)
        )
        (edge_embedding1): Embedding(6, 300)
        (edge_embedding2): Embedding(3, 300)
      )
      (1): GINConv(
        (mlp): Sequential(
          (0): Linear(in_features=300, out_features=600, bias=True)
          (1): ReLU()
          (2): Linear(in_features=600, out_features=300, bias=True)
        )
        (edge_embedding1): Embedding(6, 300)
        (edge_embedding2): Embedding(3, 300)
      )
      (2): GINConv(
        (mlp): Sequential(
          (0): Linear(in_features=300, out_features=600, bias=True)
          (1): ReLU()
          (2): Linear(in_features=600, out_features=300, bias=True)
        )
        (edge_embedding1): Embedding(6, 300)
        (edge_embedding2): Embedding(3, 300)
      )
      (3): GINConv(
        (mlp): Sequential(
          (0): Linear(in_features=300, out_features=600, bias=True)
          (1): ReLU()
          (2): Linear(in_features=600, out_features=300, bias=True)
        )
        (edge_embedding1): Embedding(6, 300)
        (edge_embedding2): Embedding(3, 300)
      )
      (4): GINConv(
        (mlp): Sequential(
          (0): Linear(in_features=300, out_features=600, bias=True)
          (1): ReLU()
          (2): Linear(in_features=600, out_features=300, bias=True)
        )
        (edge_embedding1): Embedding(6, 300)
        (edge_embedding2): Embedding(3, 300)
      )
    )
    (batch_norms): ModuleList(
      (0): BatchNorm1d(300, eps=1e-05, momentum=0.1, affine=True, track_running_stats=True)
      (1): BatchNorm1d(300, eps=1e-05, momentum=0.1, affine=True, track_running_stats=True)
      (2): BatchNorm1d(300, eps=1e-05, momentum=0.1, affine=True, track_running_stats=True)
      (3): BatchNorm1d(300, eps=1e-05, momentum=0.1, affine=True, track_running_stats=True)
      (4): BatchNorm1d(300, eps=1e-05, momentum=0.1, affine=True, track_running_stats=True)
    )
  )
  (graph_pred_linear): Linear(in_features=300, out_features=27, bias=True)
)
Epoch: 1
Loss: 0.6894059279976267
ROC train: 0.536540	val: 0.529236	test: 0.516814
PRC train: 0.579203	val: 0.599038	test: 0.563192

Epoch: 2
Loss: 0.6407996118373016
ROC train: 0.552284	val: 0.535911	test: 0.514136
PRC train: 0.594271	val: 0.607030	test: 0.570622

Epoch: 3
Loss: 0.6105677464934702
ROC train: 0.560670	val: 0.541002	test: 0.517566
PRC train: 0.603475	val: 0.608991	test: 0.577355
…
